model/model.pth (torch, 16787 bytes, 4 tensors)

linear1.weight f4 [256, 11]
00000000: af4b 473e 2576 97bd b3f4 853d 1073 833e
00000010: 9a94 a43e f9c5 88be 0bf8 eabe 11c7 2ebe
00000020: ffc2 fcbe aacb ad3e 8a3e 023f 5404 e93e
00000030: 104e e53e 81f8 15bf 6b3b 9abe e9da 3bbd
00000040: b0a6 d33d 6763 47bd e3a9 273e 2a9b 80bd
00000050: 4d0a 813e 2315 733d 18df 2fbe 2a37 21be
00000060: 6d9b 1f3f 92ea 9d3e d72f 3d3e 3c62 a93e
00000070: 329f 47be 84c4 9d3d 472e ddbd 8219 203d
00000080: f7ce eebe 168f 8fbe 0488 d8bd 771a 33be
00000090: 4150 883d b2d0 d8bc d9b0 08be 0fab 16bc
000000a0: e4da cd3e 2078 be3e ef7d 3d3e 777d 2d3e
000000b0: b5cc 33be bd74 203e 2768 543e a8cf 0c3e
000000c0: f373 4d3e b19e 4fbe 601c bbbd 7777 e33c
000000d0: 7cd3 443e 6a4a 87be e8d4 e73d 069c a43e
000000e0: cba8 203f 1138 17bf a522 3b3e 8c66 86bd
000000f0: 2be3 e63c 8252 9dbd 1924 3e3c 1d9d 893e
00000100: a476 0a3e 430d d73e 72bd 3dbe f36a 89be
00000110: 4f7f 863d cf9d 453e a755 643e 8b82 2b3e
00000120: 6cf9 a8bd de57 2abe 6f3b 5bbe 1a6f 80be
00000130: 7b27 50be 0791 683e a2f3 90bd fd78 c83e
00000140: 6264 17be 4194 65be deb6 cf3d 0204 5c3d
00000150: a9b7 c83c a5a0 a73d ea25 1dbe 5cf9 a2be
00000160: 9f8d 59be d6d7 89be d274 47bd 50bc 6e3e
00000170: 18e9 29bd 9dd2 0e3e 68fb 173d 000d 333b
00000180: 3819 e8bc 1d91 593d 67e8 20bd 8d70 cdbd
00000190: 103f 7d3e 34f6 9bbe 57a1 ac3e 19af 7ebe
000001a0: 9b9b ec3e 01c4 d7bd 15dd 393e cf25 63be
000001b0: 6435 92bc f764 9ebe be47 43be a517 1e3f
000001c0: a45a 0fbe 6f1b 6f3d 92d2 afbc de78 9c3d
000001d0: 0bb2 63be 6c4a a8bb 530e 20bd 411f d4bd
000001e0: 617f 5f3e aa05 323e 55d4 893e 3a4a 54bd
000001f0: 1089 52be 6e66 733e 9961 1d3e 09f9 d4bd
00000200: a83d bfbe f83f 56be 7725 ca3d 7468 b1be
00000210: bea2 a43e b2b0 bb3e 15d4 d8be 803c c03d
00000220: e115 da3c 6bbc 0abe b1a4 90bd 8a15 f4bd
00000230: 27e6 4bbe ee01 f83c 5c1d 443c c44d 68bd
00000240: 1052 84bc ea10 cebd b5de dd3c 6240 85be
00000250: 72ec 023d 9cad 82be 6a9f 8d3e 2a3c 163e
00000260: 2192 d8bc 14fb 97bd 7355 8bbe dac8 6b3e
00000270: 5b4f e3be bc4e fa3d a06e a83d 385e 36be
00000280: e17a 48bd 40ca 31be 7da2 803d 84ac 243d
00000290: bbd1 24bd bca6 8ebe 23a0 88bc d434 1bbe
000002a0: e74c 8cbc 625d a5be 5284 17be 963b d23d
000002b0: 2786 2abd abd3 0b3d a73c 99bd 71d3 47bd
000002c0: 7775 4b3e 493a 0d3e 2fab 9b3e 9ac1 17be
000002d0: 5922 903c 117c 8bbe 32e8 91be f998 803e
000002e0: 3bd7 963e 2391 933e a0b1 9f3e 9ed6 e7be
000002f0: ff30 54bc bf7c f53d ec07 663e d696 f8be
00000300: db1b d0bd daa8 e53d aa41 d03d bea7 eebe
00000310: 2eae c93d b3b9 dc3d 8e2b 00be a262 0cbe
00000320: 4382 16bd 7fe2 a03d 29e1 1e3e 439a a4be
00000330: d28e 393d 582d a63d 5e64 653e 6816 6dbe
00000340: 3652 ab3c ea96 0d3e a618 38be 47ea c63e
00000350: 0211 8ebe ac2b 20bd 81d4 c93e 785c 673e
00000360: 9ccf ab3e 835d 063e 2139 9dbe 4738 0fbe
00000370: 615c 263e 73bb f7bc 5de0 34bc 4acf 0d3d
00000380: f322 c33d dbb1 99be 1a79 bf3e c2dc 82bd
00000390: 8c48 0fbe a9a1 403d 4ec0 dabe f4fd 0ebe
000003a0: b45f f2bd bb92 0ebe 1412 b93e 08fd 3fbe
000003b0: d5d5 ac3e 727a 31bc eb3c 56be 7f55 acbe
000003c0: 02e6 f2bd 46cc f0be 8438 29bf 382d 8e3e
000003d0: 9b34 bb3e 59da 82bc e1a8 8f3e f4c9 4dbd
000003e0: 3cbb 193e 0479 b13d 72ee 173e baf0 123e
000003f0: e5f0 4f3e 2c60 393e 9a96 3a3e 33c3 60be
0.19462465 -0.07395581 0.06540813 0.25673723 0.32144624 -0.2671354 -0.45892367 -0.17068125
-0.4936752 0.33944446 0.5087668 0.45511115 0.4478612 -0.5858231 -0.30123457 -0.045863066
0.103345275 -0.04867878 0.163734 -0.06279595 0.2520317 0.05934633 -0.17174947 -0.157437
0.62346536 0.30843025 0.1847528 0.3308276 -0.19494322 0.07703498 -0.10799842 0.039086826
-0.46642277 -0.28038853 -0.10572818 -0.17490564 0.06655932 -0.026466701 -0.13348712 -0.009196057
0.40206063 0.37201023 0.18505071 0.16942392 -0.17558558 0.15669532 0.20742856 0.1375109
0.20063762 -0.2027538 -0.091362715 0.027766926 0.192213 -0.2642396 0.113199055 0.32150286
0.6275756 -0.59069926 0.18274935 -0.06562528 0.028184494 -0.07681753 0.011605286 0.2687768
0.1352182 0.42002305 -0.18529299 -0.26839408 0.06567251 0.1929848 0.22298299 0.16749017
-0.082506984 -0.16635081 -0.21409391 -0.25084764 -0.2032756 0.22711574 -0.07077719 0.39154807
-0.14784387 -0.22419836 0.10142301 0.05371476 0.024501638 0.081849374 -0.15346494 -0.3183087
-0.2124543 -0.26922482 -0.048695393 0.23314023 -0.04148206 0.1394753 0.037104994 0.002732098
-0.028332338 0.053116906 -0.039284136 -0.10031233 0.24731088 -0.30461276 0.33716843 -0.24871482
0.46212468 -0.10535432 0.18150742 -0.22182392 -0.017847724 -0.30936405 -0.19070336 0.6175483
-0.1399942 0.058375772 -0.021462712 0.07640241 -0.22235887 -0.005135825 -0.03907616 -0.10357524
0.21825935 0.17384973 0.2691981 -0.0518286 -0.20560098 0.23769543 0.15369262 -0.10399062
-0.37351727 -0.2092284 0.09870427 -0.34650004 0.32155412 0.36658245 -0.42349306 0.093865395
0.02662176 -0.13548438 -0.070626624 -0.11918171 -0.19912015 0.030274358 0.01196989 -0.056714788
-0.016152412 -0.1006182 0.027083734 -0.26025683 0.031963773 -0.25523078 0.27660686 0.14671388
-0.026436867 -0.07420936 -0.2721363 0.23025838 -0.4439648 0.12222049 0.08224225 -0.17809379
-0.04894531 -0.17362309 0.06280992 0.040203586 -0.040239077 -0.27861583 -0.016677922 -0.15156871
-0.017126514 -0.32297808 -0.1479657 0.10265271 -0.041631844 0.03413741 -0.07482272 -0.04878563
0.19869028 0.13791765 0.3040404 -0.14819947 0.017594503 -0.27243093 -0.28497463 0.2511671
0.29461083 0.28821668 0.31190205 -0.45280927 -0.012951135 0.11986684 0.2246396 -0.4855258
-0.10161563 0.112138465 0.101687744 -0.46612352 0.09847675 0.10777607 -0.12516615 -0.137095
-0.03674532 0.07855701 0.1551558 -0.32148942 0.04530222 0.081141174 0.22401568 -0.23153079
0.020913225 0.138271 -0.17978153 0.38850614 -0.2774735 -0.03910415 0.3941994 0.22593868
0.3355683 0.1312161 -0.30707648 -0.13986312 0.16246177 -0.03024075 -0.0110398205 0.034621514
0.095281504 -0.30018505 0.3739708 -0.063897625 -0.13992518 0.04702917 -0.42724842 -0.13964063
-0.1183466 -0.1392316 0.36146605 -0.18748868 0.3375689 -0.010832416 -0.20921676 -0.33658978
-0.11860277 -0.47030848 -0.6610186 0.27768874 0.36563572 -0.015973257 0.28058532 -0.050241426
0.1501283 0.0866566 0.14837053 0.14349642 0.20306738 0.18103093 0.18221512 -0.21949463

linear1.bias f4 [256]
00000000: 4b36 babd 9d6c 0e3d bfbb 513e e4dd 3ebd
00000010: 0849 9c3d e1ff 39be 57a4 bdbd 8e7d dd3d
00000020: 77bf 95be 897f dd3d 17f0 f9bc 7da6 653d
00000030: 4a05 583d a47e 9fbe 9ebd 943e 0a77 ca3c
00000040: c62a eebc 8eaa b43e 0aab bb3d 45be b5bd
00000050: 183e 2c3d b4b2 c93e dc5d 573e e258 023c
00000060: 7a3c 3abe 1f2a a53d daa0 8dbd c6d9 a6bd
00000070: 8b63 c6bd c394 9b3e e830 dc3d ee78 f43b
00000080: 73a3 97bd 95ac 0c3e 7c87 d83d 9421 b23d
00000090: e448 3cbd 2a1c 14be 75b1 d7bd d56d 87bd
000000a0: e7c4 8dbd bc51 373d a83b 4abe cf90 8dbe
000000b0: cd04 013d f28f c73e 22dc 663e e090 683e
000000c0: 2346 a73d 1737 05bd 1ed1 83be 9933 c0bd
000000d0: 29fe fd3d eb11 143d 77fa 0cbe a415 583e
000000e0: 1dbd 07bd aedd cebd 0178 99bd 3bdb c1bd
000000f0: 60c1 cabe 7975 043e ed35 2cbe b5a2 a33a
00000100: e040 613e ec24 a33e 4f43 9cbd 2951 fab9
00000110: f452 26be 929b 94be bee9 b73e a590 ccbd
00000120: 0908 393e 487a efbd 4caf 41be 3683 8fbe
00000130: a593 b93e 45d4 b8bd 0b03 f73c 7694 e3bb
00000140: a563 cbbc ab35 90bd 5218 973d 6390 8a3e
00000150: 0555 8e3e 473c 7e3d 0c2c eb3c 141f 0b3e
00000160: 7970 15be 436f 00be 58b1 ce3d 4a6b b3bd
00000170: 76b2 8b3c 0520 0cbe d5ba 59be f376 f2bd
00000180: e1cf a2bb 5084 1dbe f4e7 88bd 6a26 a53e
00000190: a731 9b3d 5d0b 513d dd0b 1ebe 45ce 7e3e
000001a0: 4872 93bd 4b6f bfbd 0f1f d1bd c3e3 29be
000001b0: b389 96bd 8d56 a23c 4332 03bd bc99 b13d
000001c0: d70d cfbd 2dfb 763d 7fd6 9d3d 4f95 0fbd
000001d0: e101 b8be 8f8e 6b3e e540 22be f12c 8f3e
000001e0: a4b6 6f3e 7478 a8bb 044e aa3d 272f 34bc
000001f0: 5553 0ebe 0615 98bd 6385 f43d 4ed1 8dbe
00000200: dbd7 2cbe fc91 2dbd d93f 4abd 81e6 f23d
00000210: eab6 813e 79c2 0cbe ebd4 283d a9c7 3a3e
00000220: c417 163c e761 9cbd 007a 2bbe 95e3 043e
00000230: ffb1 f8bd 37f1 46be 8630 b53c 1600 de3d
00000240: a5aa 91be fde2 e0bd 649d c63c 6fd0 983d
00000250: 797e cfbd c868 5fbd 0ff5 11be e62f 873d
00000260: 5b2c a93e de4e b6bd 23da 62be 8c23 dc3c
00000270: 6a62 4b3e ac9a 273d f807 783d fa98 12be
00000280: 90a7 613d 4847 09bc 948e a03e 7f16 2cbe
00000290: 3f04 883d a15b 9abd ec34 30be c8a6 2bbe
000002a0: a6ab a5bd 19cf b7bd 6486 043e ce8c 8fbe
000002b0: 61a6 523d ba0f d63d 9a5f 26bc faae 48bd
000002c0: aec2 63bd f638 dabd a23b 0b3e 359a c5bc
000002d0: d61a e1bd 5d07 143e 54a0 163e 29b2 03be
000002e0: 26f1 07be eb44 553d 598b 3d3e dc37 253d
000002f0: b3e9 c13c 346f 6fbe 26cc 20be e110 82be
00000300: 3817 c7bd 2c57 50be cd2b 8abd a6ee c53c
00000310: 7fab 76be 2f82 a6bd a5bb 133e dbc6 abbd
00000320: 06fb 0ebe 203b febc 89f9 2dbd a92f 07bd
00000330: 6f35 5bbd ef96 823e d5d9 88be 6257 a2be
00000340: 6fd6 483e ff08 70be 1f28 abbe 4283 baba
00000350: d83e c73c 8a8e 4cbe f8df 713e c345 c8bd
00000360: 3801 86be 3298 c4bd 9082 cc3e 29c5 69be
00000370: 2def cbbd a7e5 bfbd d8fc 043d 31cc 923e
00000380: 2867 143e 6d6d 003e 49a7 3c3c 1b36 09be
00000390: 5657 f3bd aa37 96bd 2675 783e ea02 6bbe
000003a0: fc71 afbd ec9d 3f3e 3f41 a83c 8946 aebd
000003b0: 12b2 d1bd addf d13d 0de4 93bd be41 013c
000003c0: 0842 963e ca5a 363e bad9 90be d904 20be
000003d0: d6dc 29be e4a7 693d 9256 87bd 8292 cd3e
000003e0: 9c38 0d3e bbee 1cbd e204 1b3e 8607 11be
000003f0: 042d a6bd 9ad5 d93d c07f 213d 60ee e0bd
-0.09092387 0.03477155 0.20481776 -0.04659833 0.07631117 -0.18164016 -0.09259861 0.10814963
-0.2924764 0.10815341 -0.030509992 0.05606698 0.05273942 -0.31151307 0.29050916 0.024714965
-0.02907313 0.35286373 0.091634825 -0.08874182 0.042051405 0.39394152 0.21031898 0.007955762
-0.18187132 0.080646746 -0.069154456 -0.08147006 -0.09686955 0.30386934 0.107515156 0.007460705
-0.07404222 0.1373771 0.105727166 0.08697811 -0.04596795 -0.14463869 -0.10531894 -0.06612746
-0.06922322 0.044755682 -0.1974932 -0.27649543 0.03149872 0.3897701 0.22544912 0.22711515
0.081676744 -0.03252324 -0.2574548 -0.093848415 0.12401993 0.0361499 -0.1376742 0.21102005
-0.033139337 -0.10100876 -0.07493592 -0.09465643 -0.39600658 0.12935437 -0.16817446 0.0012484404
0.21997404 0.31864107 -0.076300256 -0.00047744185 -0.16242582 -0.2902494 0.3592052 -0.09988526
0.18069471 -0.11693245 -0.18914527 -0.28029794 0.36245456 -0.09024862 0.030152818 -0.006945188
-0.024827788 -0.07041486 0.073776856 0.27063283 0.2779924 0.062069204 0.028707527 0.13586074
-0.14593686 -0.12542443 0.100924194 -0.08760698 0.01705287 -0.1368409 -0.21262677 -0.11839094
-0.0049686288 -0.15382504 -0.066848665 0.3225587 0.0757783 0.051036227 -0.15434213 0.24883373
-0.07199532 -0.09347399 -0.10211002 -0.1659079 -0.07350483 0.019816661 -0.032030355 0.08671901
-0.101100616 0.060298134 0.077069275 -0.0350545 -0.35938933 0.230036 -0.15845068 0.27963975
0.23409516 -0.0051413123 0.083156615 -0.01099757 -0.13898976 -0.07425885 0.11939504 -0.2769875
-0.16879217 -0.04237555 -0.049377296 0.118603714 0.25334865 -0.1374606 0.04121868 0.18240227
0.00916094 -0.07635861 -0.16745758 0.1297744 -0.12143325 -0.19427954 0.022117864 0.1083986
-0.28450504 -0.109807946 0.024244972 0.074616306 -0.101315446 -0.054543287 -0.14253639 0.06600933
0.33041653 -0.089017615 -0.22153525 0.026872419 0.1986176 0.04091899 0.060554475 -0.14316168
0.05509144 -0.008378811 0.31358778 -0.16805457 0.06641435 -0.07537008 -0.17207688 -0.16762841
-0.0808938 -0.089750476 0.12941891 -0.28037113 0.051428203 0.10452218 -0.010154629 -0.048994996
-0.055605583 -0.10655396 0.13596967 -0.024121383 -0.10991447 0.14455934 0.14709598 -0.12860931
-0.13275585 0.05206768 0.18510188 0.040336475 0.023671007 -0.23382264 -0.15702876 -0.25403503
-0.097212255 -0.20345753 -0.067466356 0.024161648 -0.24088858 -0.08130299 0.1442705 -0.08387538
-0.13962945 -0.031034052 -0.042474303 -0.033004437 -0.053517755 0.25505778 -0.26728693 -0.31707293
0.1961305 -0.23440932 -0.33429047 -0.0014229792 0.024321958 -0.1997625 0.23620594 -0.09778931
-0.26172805 -0.095993415 0.3994336 -0.22829117 -0.099577285 -0.093699746 0.032467693 0.2867141
0.14492476 0.12541743 0.011514493 -0.13399546 -0.118818924 -0.07334836 0.24263439 -0.2295033
-0.08566663 0.18712586 0.020538924 -0.08509547 -0.10239042 0.10247741 -0.072212316 0.007889209
0.29347253 0.17808071 -0.28291112 -0.15626849 -0.16588148 0.05704488 -0.06608309 0.4015084
0.13791126 -0.03831361 0.15138581 -0.14163026 -0.08114055 0.106364444 0.039428473 -0.109829664

linear2.weight f4 [3, 256]
00000000: 4815 17bf 6926 c7bd d5d5 9a3e a178 9bbd
00000010: 8b52 733d 0560 4fbe 7a04 fb3c 61c2 bc3c
00000020: 4b1b f9bb 4a26 653e fe55 1dbe 263d 213e
00000030: dcc7 883b d893 3cbd 0b9d 2c3e 3260 483c
00000040: 191a 55be ab26 443e 78fa d93d a652 a0be
00000050: 83af 9bbe 902a aa3e 48f1 0a3e f1df 3dbe
00000060: f2c6 ebbd 46ac 383d f1a1 6dbc 09c0 ccbd
00000070: d3c7 a1be 9871 863e 8f6a a43c 0519 b0be
00000080: e7ff b8bd eda2 d1be 8ce3 cdbd 295c bf3e
00000090: 9ec4 59be c9c6 8abd f950 bebe 2bd5 d83e
000000a0: c7f9 c0be ad2e 24be 8f4e 5ebe 16fc 9dbd
000000b0: 83d7 d3be 10b7 bc3e c2d3 5f3e 7641 ce3e
000000c0: dd66 69bd 64c8 163e 22c0 d0be 86ce a6bd
000000d0: 53ca 0fbc 3ddb a63e b044 a1bb 09f1 c53c
000000e0: 1b89 f6bd e110 a3bd b30e dfbc 9959 f9be
000000f0: dd4a 9dbe d8fb dfbd 4697 bebe 8f66 6f3e
00000100: 38b0 273b a4ce 2b3d aa8b b3be 9f70 21bd
00000110: 8ebf 3e3e 600f 65bb 8404 5b3e 7683 c93d
00000120: ee9d cd3c 6cd3 c13e 463e 25be b00f 073e
00000130: ebeb b53d ae60 693d 8f70 6bbe fe09 37be
00000140: d8ca e3be b653 353c 4664 56bd 9416 b63e
00000150: e2c0 163c 153e b33b 8f65 94bc 2443 8d3b
00000160: cfe5 e6be aa92 f5bd 63d6 2c3d 318c fbbd
00000170: b2fc 66be aef3 a1be 80fe 6c3a 91a6 293c
00000180: dbbe 413e 62fd 23be 16e4 483e 843f ae3e
00000190: f956 173e 425c 92bd dfe7 0abe cada ac3e
000001a0: 2817 3c3e 6d2a 8abe 85ec 98be 77ab 6fbe
000001b0: dcd1 a0bd 6551 7d3e ebf9 bcbd 9e60 ecbd
000001c0: 32c3 08bf 1be1 263e 44af 08bd e687 673c
000001d0: 5829 38be 8f14 143e 7989 f83c fc70 323d
000001e0: 7aa3 9c3d a9b7 333e 59b7 a3bd 17fb 0a3c
000001f0: 5d64 b0be 7230 613c 2776 d23a 866f 72bd
00000200: f4b8 47be 48f2 20bf 3c10 953d b7cb 043d
00000210: 9067 183e 2f93 a7be 8480 a4be 1402 3e3e
00000220: 994e 393d 17c8 923e e84c 7a3b e871 1e3e
00000230: 509f 2ebe 04d5 d2bc dae1 87be 52d3 633d
00000240: 81b6 863d b3ea 83be 3f64 b3bb db5c 473e
00000250: e454 86be 509f 36be b038 6abe 7006 0ebe
00000260: 70dd 9d3d 46d5 0ebe 943d d73e e370 52be
00000270: 5824 89bc 8d6b 0e3d 97c7 3fbc c048 cabd
00000280: 440e 71be 778f af3c 3c57 043e 11b4 cbbd
00000290: 09d4 bcbd 881a a4be fe6d fbbd 556f 8dbe
000002a0: dccc e8bd c9fd a7be c5f9 39bd 00df d3bb
000002b0: a255 e1bb 5fac 993d d6f4 f3bc 8047 993d
000002c0: d91b 24be 565a 91bc cc3e 3f3e 0a5b c43e
000002d0: 4746 c3be 9626 023d ea4c f63d c2a4 8cbe
000002e0: 8e29 e1bc 3505 893c 438f 813d 44fc ee3d
000002f0: 9398 3d3e 056e a83d d95b ffbd 6614 a5be
00000300: 69ef a1bd 5841 babe fe2a d4be ce3c 993e
00000310: 83b7 103e 80a7 543e 997a 9b3e 7f69 543d
00000320: bd59 9ebc 3816 b03e 5148 94be b5d1 5fbe
00000330: eceb bebd 596f f03d c16f 16bf 56b9 a5be
00000340: 25cb b23e fc70 1cbe fc8e 6abc 7910 b3be
00000350: fab2 39be b494 34be c8c3 043e e11a 84be
00000360: dcac 53bc 7510 bbbd ed34 b83d 8f11 8ebd
00000370: 9ad1 51be 1bb5 24bc 7d94 81bc 1716 c73d
00000380: c286 aa3d 84b1 02be 1b79 613e 62a9 24be
00000390: 14b2 9e3e c1bf 6ebe 8313 94bc d840 fd3d
000003a0: 7530 f9bc 0100 d43e 7f90 943c 8f71 f4bd
000003b0: f7a7 0fbe ba92 b3bc bd0a 5abe d513 ba3d
000003c0: 3a93 c73c 838b a53e 0dbb 16be 304e 55be
000003d0: e31a 66be ab5c 1b3f 75c2 dbbd d894 793e
000003e0: 7e04 1a3e 0a5c aabd d22e 4bbd 745c 3cbe
000003f0: b4cd 88be d057 50be 2489 08be 99da 41be
-0.5901685 -0.09724123 0.30241266 -0.075913675 0.05940489 -0.20251472 0.030641783 0.023041906
-0.0076021305 0.22377887 -0.15364835 0.15745983 0.0041742157 -0.046039432 0.16856782 0.012229966
-0.20810737 0.19155376 0.10643476 -0.31313056 -0.30407342 0.33235598 0.13568604 -0.18542458
-0.11512555 0.045086168 -0.014503942 -0.09997565 -0.31597766 0.2625854 0.020070342 -0.34394088
-0.090331845 -0.40944615 -0.10053167 0.37375 -0.2126641 -0.067761965 -0.37171152 0.42350134
-0.37690565 -0.1603343 -0.21709655 -0.07714097 -0.4137536 0.36858416 0.21858123 0.40284318
-0.056982864 0.1472488 -0.40771586 -0.0814486 -0.008776265 0.3258914 -0.0049215183 0.024162786
-0.120378695 -0.07962204 -0.027228689 -0.4870117 -0.3072118 -0.10936707 -0.37224787 0.23378967
0.0025587212 0.041945115 -0.35067493 -0.039414044 0.1862776 -0.0034951791 0.21388441 0.09839527
0.02509972 0.37856615 -0.16137037 0.13189578 0.088828884 0.056976967 -0.22992156 -0.17874905
-0.44490695 0.0110673215 -0.052341722 0.355641 0.00920126 0.0054700472 -0.018114833 0.0043109823
-0.45097205 -0.119908646 0.042196643 -0.12282599 -0.22557333 -0.31631225 0.0009040609 0.010354654
0.18920462 -0.16014627 0.19618258 0.34032834 0.14779271 -0.07146503 -0.13565014 0.33760673
0.18368208 -0.26985493 -0.2986795 -0.23405252 -0.078525275 0.24738081 -0.092273556 -0.11541866
-0.53422844 0.16296808 -0.03337027 0.014131522 -0.17984521 0.14460967 0.03033899 0.04356478
0.07648368 0.1755053 -0.07993955 0.008482716 -0.3445157 0.01374446 0.0016056941 -0.05918839
-0.19504148 -0.6286969 0.07278487 0.03242084 0.14883256 -0.3272948 -0.321293 0.1855548
0.045240972 0.2866828 0.0038192812 0.1547314 -0.1705296 -0.02573634 -0.265395 0.055621453
0.065777786 -0.25765 -0.0054745967 0.19469015 -0.2623664 -0.1783421 -0.22873187 -0.13869643
0.077082515 -0.13948545 0.42039168 -0.20550875 -0.016740963 0.034770537 -0.011705301 -0.09877157
-0.23540598 0.021430714 0.12923902 -0.09946454 -0.0922013 -0.32051492 -0.12276839 -0.27624002
-0.11367199 -0.3281081 -0.045404214 -0.0064657927 -0.0068766633 0.0750358 -0.029779833 0.07484341
-0.16026248 -0.01774327 0.18676299 0.38350707 -0.38139555 0.03177508 0.12026389 -0.2746945
-0.027485635 0.016726116 0.06326153 0.116692096 0.18515234 0.082241096 -0.124686904 -0.32242125
-0.07906992 -0.36377978 -0.4143905 0.29929203 0.14132504 0.20767021 0.30366972 0.05185842
-0.0193299 0.34391952 -0.28961423 -0.2185734 -0.09322342 0.11739988 -0.5876427 -0.32367963
0.34920612 -0.15277475 -0.014316317 -0.34973505 -0.1813468 -0.1763485 0.1296531 -0.25801757
-0.012919631 -0.09133998 0.0899447 -0.06936943 -0.20490113 -0.0100529445 -0.015817875 0.0972101
0.08326484 -0.1276303 0.22018854 -0.1608024 0.30995238 -0.23315336 -0.01807571 0.123658836
-0.030418614 0.41406253 0.018135307 -0.11935722 -0.14028917 -0.02192055 -0.21293159 0.09085814
0.024362195 0.32333001 -0.14719792 -0.20830607 -0.22471194 0.60688275 -0.10730449 0.24373186
0.15040776 -0.08318336 -0.0496052 -0.18394643 -0.2671944 -0.20345998 -0.13333565 -0.18931045

linear2.bias f4 [3]
00000000: 6e66 1f3e a4a9 1d3c ec0d edbd
0.15566418 0.009622965 -0.11574921
